red_blob_yolo.onnx (onnx, 97832 bytes, 8 tensors)

features.0.weight f4 [16, 3, 3, 3]
0	0xbe2819e6	-0.1641613
1	0xbd82c991	-0.06386102
2	0xbd8b6f80	-0.06808376
3	0xbe02b8fc	-0.12765878
4	0x3d91f4f4	0.07126799
5	0x3d1e0e7d	0.038588036
6	0xbd03add3	-0.032148194
7	0x3e040f50	0.12896466
8	0xbe1990d1	-0.1499665
9	0x3d6608ef	0.056160863
10	0x3cb37f80	0.021911383
11	0x3d86f2f8	0.06589311
12	0xbc2ce7b7	-0.010553292
13	0x3e02edc8	0.12786019
14	0xbd8315d9	-0.064006515
15	0xbe2c3337	-0.16816412
16	0xbd1d7fcf	-0.038451966
17	0xbe08c3bb	-0.13355915
18	0xbcd72e31	-0.026267143
19	0xbd4c9564	-0.049947158
20	0xbdeae019	-0.114685245
21	0xbc549193	-0.012974161
22	0xbe1d3d80	-0.15355492
23	0x3e40407c	0.18774599
24	0x3df77d91	0.12084497
25	0x3e12a71c	0.1432156
26	0xbe28e8f6	-0.16495118
27	0xbe55da41	-0.20884039
28	0xbe0ef9ef	-0.1396253
29	0xbd8f402f	-0.06994664
30	0xbcd9a1fa	-0.026566494
31	0xbe3a40ca	-0.18188778
32	0xbe5913f9	-0.21199025
33	0xbd170a44	-0.036875024
34	0xbd0862be	-0.033297293
35	0xbdb4bd14	-0.08825126
36	0x3e646591	0.2230437
37	0x3de3f6b2	0.11131038
38	0x3e465371	0.19367768
39	0x3e2048c5	0.1565276
40	0xbda1a50c	-0.07892808
41	0x3e725000	0.2366333
42	0xbd7ad3b6	-0.06123706
43	0x3e509016	0.20367464
44	0x3e6db1ec	0.23212403
45	0xbde4612f	-0.11151349
46	0x3dda5992	0.106616154
47	0x3ca7a46a	0.02046414
48	0xbceb7bcb	-0.028745553
49	0xbd05d3ff	-0.03267288
50	0x3e72a5de	0.23696086
51	0x39faa540	0.00047806837
52	0x3e02812e	0.1274459
53	0x3e4e98a8	0.20175421
54	0xbe84fb07	-0.2597277
55	0xbe71e59b	-0.23622744
56	0x3dcb2b17	0.09920328
57	0xbd8ef555	-0.06980387
58	0x3dc4f413	0.09616866
59	0xbde5ad94	-0.11214748
60	0xbde96ab1	-0.11397303
61	0x3c108e6e	0.00882302
62	0xbe78b4f7	-0.24287783
63	0x3e1b99f3	0.15195446
64	0x3e4db554	0.20088702
65	0x3dd52e4c	0.10409221
66	0x3e42d082	0.19024852
67	0x3d75a34a	0.059970178
68	0x3e2b7b9e	0.16746375
69	0x3db94499	0.09046287
70	0xbdbe733e	-0.092993245
71	0x3e516b62	0.2045112
72	0x3e139f95	0.14416344
73	0x3e1c6695	0.15273507
74	0xbdb25414	-0.08707443
75	0x3dc32c7c	0.09529969
76	0x3e070f69	0.13189472
77	0x3e677ff0	0.22607398
78	0x3e3a4b5b	0.18192808
79	0x3e0fc889	0.14041342
80	0x3e807689	0.25090435
81	0x3e547662	0.20748284
82	0xbd581004	-0.05274965
83	0xbe049ade	-0.12949702
84	0x3e5f85f1	0.21828438
85	0xbd062677	-0.032751527
86	0xbde44f00	-0.111478806
87	0x3dd4c628	0.10389358
88	0x3d5b901f	0.05360424
89	0x3e04fb1d	0.12986417
90	0x3dce0250	0.10059035
91	0x3d57866d	0.052618433
92	0xbdfc29dd	-0.12312672
93	0x3d8e7594	0.0695602
94	0xbe316e59	-0.1732725
95	0x3b40153c	0.0029309532
96	0xbdfa4bc1	-0.1222148
97	0x3df678b3	0.1203474
98	0xbcba72b4	-0.022759773
99	0xbe193d0c	-0.14964694
100	0xbdf2da51	-0.11858047
101	0xbd857878	-0.06517118
102	0xbe4d804c	-0.20068473
103	0xbd1fe965	-0.03904094
104	0xbd63936a	-0.055560507
105	0xbdae54ed	-0.08512292
106	0xbe648d4e	-0.22319528
107	0xbe7222d2	-0.23646095
108	0xbb65c8ae	-0.0035062241
109	0xbd47f61d	-0.048818696
110	0xbe39c3e3	-0.18141131
111	0xbe2b37a4	-0.16720444
112	0x3e01f82f	0.12692331
113	0xbdea9bdc	-0.11455509
114	0x3cfc9716	0.030833762
115	0xbdc409ef	-0.09572207
116	0xbe2b808c	-0.16748255
117	0xbd42bc3f	-0.047542807
118	0x3bec25c5	0.007206651
119	0xbcbd80d2	-0.023132715
120	0xbdb88b1e	-0.090109095
121	0xbe1d9fab	-0.1539294
122	0x3e3c8f50	0.18414044
123	0x3e2a586c	0.16635293
124	0x3d65e4fe	0.056126587
125	0x3d0cf567	0.03441372
126	0x3e1680a1	0.14697506
127	0xbd6a65a0	-0.057225823
128	0xbe347606	-0.17623147
129	0x3d954b56	0.0728976
130	0xbd759e9e	-0.059965722
131	0x3d9c9c34	0.07646981
132	0xbdcaadfa	-0.09896465
133	0xbdd973c7	-0.10617786
134	0x3d43e436	0.04782506
135	0x3e9668a2	0.29376704
136	0x3e8d3c6e	0.27585167
137	0x3e14e955	0.14542134
138	0x3e547968	0.20749438
139	0xbbe793e3	-0.00706719
140	0xbd1fa980	-0.038980007
141	0x3e82248e	0.25418514
142	0x3e6f1926	0.23349437
143	0x3e413e03	0.18871312
144	0xbe80dc9c	-0.25168312
145	0xbdae0a30	-0.08498037
146	0xbe8108f6	-0.2520215
147	0xbe9024b8	-0.28153014
148	0x3c3084cc	0.010773849
149	0xbeafedf7	-0.3436124
150	0xbd921870	-0.07133567
151	0xbe88662f	-0.2664046
152	0xbe1b8665	-0.15187986
153	0xbdcb5bf8	-0.09929651
154	0xbe91b346	-0.28457087
155	0xbe6f4b2f	-0.23368524
156	0xbe87780e	-0.26458782
157	0xbd9252fc	-0.07144734
158	0xbe58d70d	-0.21175785
159	0xbdc22995	-0.094805874
160	0xbe881ca1	-0.26584342
161	0xbe2a0cbf	-0.16606425
162	0xbddc8266	-0.10767059
163	0xbd8df808	-0.06932074
164	0xbe0cd0d5	-0.13751538
165	0x3df317f3	0.11869802
166	0x3c4a9f75	0.012367119
167	0xbe43e4a8	-0.19130194
168	0x3e380ea5	0.17974336
169	0xbd1260d3	-0.03573687
170	0xbdd0ab1e	-0.10188888
171	0xbe22651c	-0.15858883
172	0xbe0a22d0	-0.13489842
173	0xbe447ed7	-0.1918901
174	0xbdf0e2ea	-0.117620304
175	0x3d7dd4f1	0.061970655
176	0x3e20cdb8	0.15703475
177	0xbe1ce0d1	-0.15320136
178	0xbe249ccf	-0.16075443
179	0xbe3f281d	-0.18667646
180	0xbe144c4e	-0.14482233
181	0xbc65a60a	-0.014016638
182	0x3cab4fdd	0.020912105
183	0xbd802486	-0.06256966
184	0x3db9de75	0.090756334
185	0x3c0182eb	0.007904748
186	0xbd95ad92	-0.073084965
187	0x3e276afa	0.16349402
188	0x3d856791	0.06513894
189	0xbde0ffb9	-0.10986275
190	0xbe38d047	-0.18048202
191	0x3e0a159b	0.13484804
192	0x3e03f623	0.12886862
193	0xbe18e909	-0.14932646
194	0x3dd998f2	0.10624875
195	0x3b42486b	0.0029645215
196	0xbd1f2463	-0.03885306
197	0xbcc1c0b1	-0.023651453
198	0xbd561bed	-0.052272726
199	0x3bebc902	0.007195593
200	0x3d4e4783	0.050361168
201	0x3e02cd9b	0.12773745
202	0x3e09e803	0.13467412
203	0xbcabc137	-0.020966155
204	0xbd8473ea	-0.06467421
205	0x3e23327b	0.15937226
206	0x3e25bfe1	0.16186477
207	0x3d9e1928	0.07719642
208	0x3c9fce52	0.01950756
209	0xbdd2c18a	-0.10290821
210	0xbc80eddd	-0.015738422
211	0xbdd9e9a7	-0.10640269
212	0xbdac2426	-0.08405332
213	0xbe109a31	-0.1412132
214	0x3e42fb56	0.1904119
215	0x3db58eab	0.088651024
216	0xbd7892c7	-0.060686853
217	0x3d7454af	0.059651073
218	0xbdbf2045	-0.09332327
219	0x3dd6f677	0.10496228
220	0x3dea9035	0.114532866
221	0xbe093235	-0.13398059
222	0xbe2c3a24	-0.16819054
223	0x3dcbf5ef	0.099590175
224	0x3de8b7ae	0.11363159
225	0xbe29d978	-0.16586864
226	0x3d76d36d	0.060260225
227	0x3ace1f81	0.0015725942
228	0xbe3ca554	-0.18422443
229	0x3e1026f7	0.14077364
230	0x3d8cf499	0.06882591
231	0xbe0c8863	-0.13723902
232	0x3e02fac3	0.1279097
233	0xbe39d8a4	-0.18149048
234	0xbdaeff60	-0.08544803
235	0x3e0e5781	0.13900568
236	0xbe3ecfad	-0.1863391
237	0xbda30007	-0.079589896
238	0x3d0dec13	0.034648966
239	0xbe322408	-0.17396557
240	0xbcb01667	-0.021495057
241	0xbe098c84	-0.13432509
242	0x3acb2ddf	0.0015501342
243	0x3e34ef85	0.17669494
244	0xbe2e0240	-0.16993046
245	0xbdc4773b	-0.09593054
246	0x3d0d808b	0.034546416
247	0xbd6e0b65	-0.058116335
248	0xbc60faec	-0.013731699
249	0xbce73d2b	-0.02822741
250	0x3d5b4e31	0.053541366
251	0x3dc32037	0.09527629
252	0x3dd79873	0.10527124
253	0xbdddaaeb	-0.10823616
254	0x3c92eb32	0.017934415
255	0x3d9efa50	0.07762587

features.0.bias f4 [16]
0	0xbdf47f4a	-0.11938341
1	0x3e1b1da4	0.15148026
2	0x3dfe6955	0.12422434
3	0x3e006eca	0.12542263
4	0xbe33407f	-0.17505072
5	0x3dd625a3	0.104563974
6	0xbcdec7e9	-0.027194934
7	0xbe3a15a9	-0.18172325
8	0xbe24be8c	-0.16088313
9	0xbde26bb5	-0.110557
10	0xbd022a15	-0.031778414
11	0xbe1dd332	-0.15412596
12	0xbe01d2dd	-0.12678094
13	0x3d29e52d	0.041478325
14	0x3d8990bc	0.06717059
15	0x3e20d910	0.15707803

features.3.weight f4 [32, 16, 3, 3]
0	0xbd7e6d18	-0.06211576
1	0xbd2e85ce	-0.042608075
2	0xbd299f38	-0.04141161
3	0x3c31b3d6	0.010846099
4	0x3d866026	0.065613076
5	0x3c047f36	0.00808697
6	0x3d3b62c8	0.045748502
7	0xbc3559a0	-0.011068732
8	0xbce3dce6	-0.027815294
9	0xbdc76122	-0.097353235
10	0x3c670140	0.014099419
11	0x3d15d426	0.036579274
12	0xbd7d5c19	-0.06185541
13	0xbce31cd7	-0.027723713
14	0xbcd4af65	-0.02596254
15	0x3d4afe76	0.04955908
16	0x3d281993	0.041040014
17	0xbd7d874d	-0.06189661
18	0xbd2a2165	-0.041535754
19	0xbdd765a9	-0.10517437
20	0xbc90c233	-0.017670726
21	0x3da84872	0.08216943
22	0x3d95ebd9	0.07320375
23	0x3d07df6f	0.033172067
24	0x3d8d5fa4	0.069030076
25	0xbb994e92	-0.0046785558
26	0x3ca02a2a	0.019551355
27	0x3d33a01c	0.043853864
28	0xbd8735d7	-0.06602066
29	0xbd28a459	-0.04117236
30	0x3d9f1398	0.07767409
31	0x3d6d680a	0.057960548
32	0xbcc3abe7	-0.02388568
33	0x3d7718cf	0.060326394
34	0xbd05f309	-0.03270248
35	0x3b921825	0.0044584447
36	0xbd3a837b	-0.045535546
37	0x3da415b8	0.08011955
38	0xbd1c3ceb	-0.038144033
39	0x3d336c83	0.043804657
40	0x3d77c286	0.060488246
41	0x3d88c914	0.066789776
42	0x3d812047	0.063049845
43	0x3d24a083	0.04019214
44	0xbd8338ba	-0.06407304
45	0xbc3009d0	-0.010744527
46	0xbdc5ffaf	-0.096679084
47	0xbd6c347d	-0.057667244
48	0x3d497870	0.049187124
49	0xbd42cc9e	-0.04755842
50	0xbd0ad191	-0.033891264
51	0x3d422278	0.047396153
52	0xbc893bee	-0.01675221
53	0x3d01bb64	0.03167285
54	0x3c3ef1eb	0.011654357
55	0xbd7b873e	-0.061408274
56	0x3d5e00be	0.054199927
57	0xbc4ce36b	-0.012505393
58	0xbc7a3116	-0.015270492
59	0xbd88ce58	-0.06679982
60	0x3c17fcb6	0.00927656
61	0x3d1bd190	0.03804165
62	0xbd4dadf6	-0.05021473
63	0x3ccae500	0.024767399
64	0x3d1dd2b3	0.038531017
65	0xbd8def7a	-0.06930442
66	0x3d6ab9f0	0.05730623
67	0x3d86ed62	0.06588246
68	0xbd4dc0d8	-0.05023274
69	0x3cdfdce6	0.027327012
70	0x3d740b2e	0.059580974
71	0x3cfdf8c0	0.031002402
72	0x3c3ef5cb	0.011655281
73	0xbb2a8700	-0.0026020408
74	0xbda9d7ac	-0.08293089
75	0xbd7ff733	-0.062491607
76	0x3d5f6da8	0.054547936
77	0xbafadb56	-0.0019138854
78	0x3d1f716b	0.038926523
79	0x3d899b57	0.06719082
80	0xbd8032c2	-0.06259681
81	0x3d5c159b	0.053731542
82	0xbc92ea16	-0.017933886
83	0xbd6bfd08	-0.057614356
84	0xbd77b0a8	-0.060471207
85	0xbd94db02	-0.07268335
86	0x3da75feb	0.08172592
87	0x3d0435f8	0.03227803
88	0xbcafe506	-0.021471512
89	0xbd19b7de	-0.037528865
90	0xbd8ffc1b	-0.07030507
91	0x3d85e984	0.0653868
92	0x3d136736	0.0359871
93	0xbd8190ef	-0.06326472
94	0x3da5129b	0.08060189
95	0x3d84aecc	0.06478652
96	0x3da383c7	0.07984119
97	0xbda7c8a3	-0.08192565
98	0xbcb13b00	-0.021634579
99	0x3d7b45ee	0.061345987
100	0x3b6b94d6	0.0035946867
101	0xbc9ce350	-0.01915136
102	0x3c8e8550	0.017397553
103	0x3cbfed06	0.023428451
104	0xbd8600df	-0.06543135
105	0xbdaa6c68	-0.08321458
106	0xbcf6fd40	-0.030150056
107	0x3d856a28	0.06514388
108	0x3d3ab016	0.045578085
109	0x3c6abf56	0.014327845
110	0x3d40cda6	0.04707112
111	0xbacf69ab	-0.0015824338
112	0xbd3cf698	-0.046133608
113	0xbd994e1b	-0.074856006
114	0x3c19cdeb	0.009387474
115	0xbcf8319b	-0.030297091
116	0xbd94f446	-0.07273154
117	0xbc3411b6	-0.010990551
118	0xbd07ce57	-0.033155765
119	0xbd1713f4	-0.036884263
120	0x3d650d94	0.055921152
121	0xbd8c531a	-0.06851788
122	0x3d97df9e	0.074156985
123	0x374cc938	1.2206197e-05
124	0x3cde13c0	0.027109027
125	0x3d2b4205	0.041811008
126	0x3c968371	0.018373223
127	0x3d0d3ca2	0.034481652
128	0xbd3c9883	-0.046043884
129	0xbd895475	-0.06705562
130	0x3d781e30	0.060575664
131	0x3ce62d29	0.028097706
132	0x3dcffa30	0.10155141
133	0xbd12fe21	-0.035886887
134	0xbd4fae19	-0.05070314
135	0xbdb1eefc	-0.08688161
136	0xbda114fe	-0.07865332
137	0x3d298c69	0.04139367
138	0xbd18c915	-0.03730114
139	0xbc6831c8	-0.014172025
140	0xbd8e275c	-0.06941101
141	0xbd459f47	-0.0482476
142	0xbd15dc52	-0.036587067
143	0x3cd63a00	0.026150703
144	0x3d9cdf56	0.076597854
145	0x3d3c9876	0.046043836
146	0x3c7df6e0	0.015500754
147	0xbda8135f	-0.0820682
148	0x3d630d60	0.055432677
149	0xbd32bd43	-0.043637525
150	0x3d5d4f38	0.054030627
151	0x3d0d2a96	0.03446444
152	0xbc15b396	-0.009137055
153	0xb91ed000	-0.0001514554
154	0x3ce75416	0.028238337
155	0xbd65d780	-0.05611372
156	0xbcd8e776	-0.026477557
157	0xbc6d28c0	-0.014475048
158	0x3d9ca276	0.076481745
159	0x3d0d91b3	0.034562778
160	0x3cd7a2e6	0.026322793
161	0x3d10e453	0.035373997
162	0x3da6c89f	0.08143734
163	0x3d32a550	0.043614686
164	0x3c9292ab	0.017892202
165	0xbc683a16	-0.014174005
166	0x3c660b00	0.014040709
167	0x3c8a5140	0.016884446
168	0xbcba112b	-0.022713264
169	0xbc8f79d0	-0.01751414
170	0xbda714a0	-0.08158231
171	0xbd980680	-0.07423115
172	0xbd78ac06	-0.06071093
173	0xbcb89a26	-0.022534441
174	0xbcd9d7a0	-0.026592076
175	0x3d84ee74	0.06490794
176	0xbd8e12b0	-0.06937158
177	0xbcfeee70	-0.031119555
178	0x3d3d8cdb	0.04627691
179	0x3b463f00	0.0030249953
180	0x3d9ae156	0.07562511
181	0x3b39a22b	0.002832542
182	0xbda21948	-0.07914978
183	0xbd3980de	-0.045288913
184	0x3da10a53	0.07863297
185	0xbd7aa44e	-0.06119185
186	0x3d1a2478	0.037632436
187	0x3d28d588	0.041219264
188	0x3cf39840	0.029735684
189	0xbc877240	-0.01653397
190	0xbcce742b	-0.025201878
191	0xbd6468b8	-0.05576393
192	0xbda3e4e6	-0.08002643
193	0xbd9375ac	-0.072001785
194	0x3d534c26	0.051586293
195	0xbba7acd6	-0.005117039
196	0x3d3e2060	0.046417594
197	0x3da486ca	0.080335215
198	0x3d502743	0.050818693
199	0xbcd1c2c6	-0.02560557
200	0x3d5376ab	0.051626842
201	0xbb9033eb	-0.0044007204
202	0x3d84d02e	0.064850196
203	0x3d940908	0.07228285
204	0x3d592fee	0.053024225
205	0x3d9695bc	0.07352778
206	0x3d8d2cb0	0.06893289
207	0xbd6a4ece	-0.05720406
208	0x3bb6db80	0.0055803657
209	0x3d7aaf60	0.061202407
210	0xbc757ceb	-0.014983396
211	0x3d0cee1b	0.034406763
212	0xb7854000	-1.5884638e-05
213	0x3cd61276	0.02613185
214	0xbd221720	-0.039572835
215	0x3cf8d730	0.030376047
216	0x3d35e980	0.044412136
217	0xbd46c678	-0.04852912
218	0x3d75f078	0.060043782
219	0xbce59cf0	-0.028028935
220	0x3da69ffe	0.08135985
221	0xbd31639e	-0.043307893
222	0xbcad78c0	-0.021175742
223	0x3b84c8c0	0.0040522516
224	0x3c808fab	0.015693506
225	0xbca6f7f6	-0.020381909
226	0x3d848dd6	0.064723656
227	0x3b3e70ab	0.0029058855
228	0x3c0b5e80	0.008506417
229	0xbd024e8b	-0.031813186
230	0xbc227b8b	-0.00991715
231	0xbd720fa8	-0.059096962
232	0x3c619980	0.013769507
233	0xbd23b948	-0.03997162
234	0x3d772bc3	0.06034447
235	0x3d84bbfe	0.06481169
236	0xbda518ab	-0.08061346
237	0xbd482ad0	-0.048868954
238	0xbd6035a0	-0.05473864
239	0xbd971f2c	-0.073789924
240	0xbd8bf3c8	-0.06833607
241	0x3d5757c0	0.05257392
242	0x3d2f0ab8	0.04273483
243	0xbc1060cb	-0.00881214
244	0xbd85bc8f	-0.06530105
245	0xbd0cc093	-0.03436334
246	0xbd645690	-0.055746615
247	0xbcc883e6	-0.024476957
248	0xbd0d3358	-0.034472793
249	0xbd5a6916	-0.053322874
250	0xbd3dac80	-0.046307087
251	0x3bfebec0	0.007774204
252	0x3d3663e6	0.044528864
253	0xbd5c9273	-0.053850602
254	0x3d281ef8	0.04104516
255	0x3d1983e8	0.03747931

features.3.bias f4 [32]
0	0x3cd8ab44	0.026448853
1	0xbd85ccc2	-0.06533195
2	0xbd3d2de4	-0.046186343
3	0x3cb42928	0.021992281
4	0x3cef69e0	0.02922529
5	0xbda3464b	-0.07972392
6	0xbcd845e4	-0.026400514
7	0x3aecbab8	0.0018061018
8	0x3d864fa2	0.065581575
9	0xbc93aaeb	-0.018025836
10	0xbda7a6e4	-0.08186129
11	0x3d887698	0.06663245
12	0xbd800c97	-0.06252401
13	0xbb9e3a16	-0.0048287017
14	0x3d6e9e80	0.058256626
15	0xbd050d47	-0.032483365
16	0x3d766ae4	0.060160533
17	0x3d8933a0	0.066993
18	0x3d4d12d3	0.05006678
19	0xbd45280b	-0.04813389
20	0x3d363af0	0.0444898
21	0x3b3480dc	0.0027542626
22	0x3d789723	0.06069101
23	0xbd2917db	-0.041282516
24	0xb9f70000	-0.0004711151
25	0x3d83ae5d	0.064297415
26	0xbd2154b0	-0.039387405
27	0xbd707a48	-0.058710366
28	0x3cccddbf	0.02500808
29	0xbd5e136b	-0.054217737
30	0x3d96962e	0.07352863
31	0xbd23d84f	-0.04000121

features.6.weight f4 [64, 32, 3, 3]
0	0x3ce5db06	0.02805854
1	0x3caf8a95	0.021428386
2	0x3cee5a61	0.02909583
3	0x3dc73a2d	0.09727893
4	0x3d12c6b7	0.03583404
5	0x3cdea8b9	0.027180063
6	0xbd009646	-0.031393312
7	0xbd49e290	-0.049288332
8	0x3d2c7410	0.042102873
9	0xbd4e2b67	-0.05033436
10	0xbcbac2ca	-0.02279796
11	0xbcfb57d4	-0.030681528
12	0x3a9f7d86	0.0012168146
13	0xbd5a8515	-0.053349573
14	0xbc1c5c0c	-0.00954343
15	0x3d3ef54e	0.04662066
16	0xbcf2c48f	-0.029634742
17	0x3d63ab69	0.05558339
18	0x3c16c795	0.0092028575
19	0xbce87de6	-0.028380346
20	0xbca9cd84	-0.02072788
21	0xbd22fc67	-0.03979149
22	0xbbecd6e4	-0.0072277654
23	0xbd4c5e6e	-0.049894743
24	0xbc2e29ca	-0.0106300805
25	0x3d0176d2	0.031607457
26	0x3c9ad1fe	0.01889896
27	0xbb72f49f	-0.0037072075
28	0xbca88421	-0.020570816
29	0xbcc0246e	-0.023454871
30	0x3d76a559	0.06021628
31	0x3d1078d6	0.035271488
32	0x3d6ed562	0.058308966
33	0xbd1aa3e5	-0.03775396
34	0xbd58571d	-0.052817453
35	0x3b203794	0.002444719
36	0x3bc00c1c	0.0058608185
37	0xbd3cff26	-0.046141766
38	0x3cd3dd3b	0.025862327
39	0x3d52af6d	0.05143683
40	0x3d3d6bce	0.04624539
41	0xbcbff08c	-0.023430131
42	0x3c7f7673	0.015592205
43	0xbd3b00b3	-0.045654964
44	0x3d1b7a92	0.03795869
45	0x3d6a687c	0.05722855
46	0xbd28b995	-0.04119261
47	0x3c975a98	0.018475816
48	0xbd3b2130	-0.045685947
49	0x3d24ae20	0.04020512
50	0x3b1192e2	0.0022212793
51	0xbd44ec6b	-0.04807703
52	0xbd0b62cc	-0.034029767
53	0xbd3e24db	-0.046421867
54	0xbc92bc0d	-0.017911935
55	0x3d7de2cf	0.06198388
56	0xbcad87b3	-0.02118287
57	0x3c56cd9a	0.013110543
58	0x3d2554ad	0.040363956
59	0xbaa94805	-0.001291514
60	0x3959022a	0.00020695539
61	0x3d250024	0.040283337
62	0x3cf277ea	0.029598195
63	0xbccd46aa	-0.02505811
64	0xbcb2c37b	-0.021821728
65	0xbc85553d	-0.016275996
66	0xbc138a7f	-0.009005188
67	0xbb1ccf51	-0.002392728
68	0xbc348172	-0.01101719
69	0x3c3842b5	0.011246373
70	0x3d4b65e6	0.049657725
71	0xbcf9cd9d	-0.030493552
72	0xbd09b837	-0.033622947
73	0x3cf975e5	0.030451724
74	0xbd567657	-0.05235895
75	0xbcf6dd37	-0.03013478
76	0xbcec7b55	-0.028867403
77	0x3d581dc7	0.052762773
78	0x3cb8e30a	0.022569198
79	0xbc486349	-0.012230703
80	0xbd494998	-0.04914245
81	0xbd02f2f0	-0.031969965
82	0xbd395f1a	-0.04525671
83	0x3ced2071	0.028946133
84	0xb9251a21	-0.0001574536
85	0xbc957e50	-0.018248707
86	0xbd5a9ac4	-0.053370252
87	0xbd0389c8	-0.03211382
88	0x3d219df2	0.03945727
89	0x3c01fd6b	0.007933955
90	0x3d39541c	0.04524623
91	0x3d432023	0.04763807
92	0xbd60977b	-0.054831963
93	0x3ce649bf	0.028111337
94	0x3cd0fa18	0.025509879
95	0x3bfe790a	0.007765894
96	0xbd17d808	-0.037071258
97	0xbd13229f	-0.03592169
98	0x3d6c0b85	0.057628173
99	0x3c02ef34	0.007991601
100	0x3d3ec948	0.046578676
101	0x3d38c215	0.045106966
102	0xbc9ace41	-0.018897178
103	0xbc10f5b2	-0.008847641
104	0xbd36f4a0	-0.044666886
105	0x3cc07f1e	0.023498114
106	0xbcdd1565	-0.02698774
107	0xbcae0c34	-0.021246053
108	0xbbad5d07	-0.0052906307
109	0x3d446495	0.047947485
110	0xb91df8da	-0.00015065391
111	0x3d2b15a4	0.041768685
112	0xbd625047	-0.05525234
113	0x3d604c35	0.054760177
114	0x3c53f4d0	0.012936786
115	0x3cbcb6f7	0.023036463
116	0xbd281f38	-0.041045398
117	0xbd00b6d8	-0.031424373
118	0x3cf4e6a3	0.029895132
119	0xbbabc6da	-0.005242211
120	0xbd23c840	-0.039985895
121	0x3d6c0361	0.05762041
122	0x3ca733e2	0.020410482
123	0xbced4aa1	-0.02896625
124	0xbd3f71e9	-0.046739493
125	0x3c334e1a	0.010943914
126	0xbd55da4d	-0.05221014
127	0xbc2beb58	-0.010493122
128	0xbcdaa8b1	-0.026691766
129	0x3cfb040f	0.030641584
130	0x3d4eccf9	0.050488446
131	0x3d77ab90	0.06046635
132	0x3d463584	0.04839088
133	0x3bb07a02	0.005385638
134	0x3c4b9ebe	0.012427984
135	0x3ca0eff9	0.019645678
136	0x3ce888db	0.02838557
137	0x3c0efb9e	0.008726982
138	0xbc429fe9	-0.011878946
139	0x3d386101	0.045014385
140	0x3a44d042	0.00075078395
141	0xbd38343e	-0.044971697
142	0xbcf161f5	-0.029465655
143	0x3d313c5e	0.04327046
144	0xbd8a68ee	-0.06758295
145	0xbd686c25	-0.05674376
146	0x3cbd34db	0.023096493
147	0x3cdac8ff	0.02670717
148	0x3d4a0b87	0.0493274
149	0x3d55e4a9	0.05222002
150	0x3cb06654	0.021533169
151	0x3d495255	0.049150784
152	0x3ca3ba72	0.019986365
153	0x3d0ae6a9	0.03391138
154	0x3d01adc5	0.03165986
155	0x3ae96ce5	0.0017808942
156	0xbbf1eac3	-0.007382722
157	0x3bd9d708	0.006647948
158	0x3d49a526	0.049229763
159	0x3d222bae	0.039592437
160	0xbd1f4a82	-0.038889416
161	0xbd484843	-0.04889704
162	0xbd1c8590	-0.038213313
163	0x3d3a5c4b	0.045498174
164	0x3c91862e	0.017764177
165	0x3b402063	0.002931618
166	0xbbb0680c	-0.005383497
167	0xbce67d0e	-0.028135803
168	0xbd06239d	-0.032748807
169	0xbbaf8096	-0.005355905
170	0xbd139890	-0.036034167
171	0xbd0deffc	-0.034652695
172	0xbd01353a	-0.0315449
173	0x3d701367	0.058612254
174	0x3d4ed46e	0.050495557
175	0x3b6b97d9	0.0035948663
176	0xbd1b08e3	-0.037850272
177	0x3c44c0e5	0.01200888
178	0x3c91695b	0.017750433
179	0x3d563119	0.052292917
180	0x3c394345	0.011307542
181	0x3bea5924	0.0071517397
182	0xbd4ab3c5	-0.049487848
183	0xbb8ab44d	-0.0042329193
184	0xbc67f27f	-0.014156937
185	0xbd27adfd	-0.040937413
186	0x3d164846	0.03669002
187	0xbd3c0b52	-0.045909233
188	0xbd0e7bd3	-0.034786057
189	0xbd5a1b86	-0.053248905
190	0xbd334ffb	-0.043777447
191	0xbc5fedc4	-0.013667528
192	0xbd033593	-0.032033514
193	0xbcaa8e6a	-0.020819861
194	0x3d31cf69	0.043410692
195	0x3cc477b1	0.023982855
196	0x3d3138ac	0.043266937
197	0xbd523dc8	-0.05132845
198	0x3c63542e	0.0138750505
199	0x3d3004b2	0.042973228
200	0xbd276a24	-0.040872708
201	0x3ced7134	0.028984644
202	0x3d0df5e5	0.03465833
203	0xba9dac5e	-0.0012029519
204	0xbc950f65	-0.018195817
205	0x3bd00bc7	0.00634906
206	0x3d6a8141	0.057252172
207	0xba67515e	-0.00088240753
208	0x3d055e82	0.032560833
209	0x3c92cfd8	0.017921373
210	0xbc3f9dff	-0.011695384
211	0x3d153b12	0.036433287
212	0x3b01327c	0.001971393
213	0x3c6c7ee1	0.014434547
214	0xbb218f8c	-0.002465221
215	0xbcc91a12	-0.024548564
216	0xbc838f4a	-0.016059536
217	0x3d15bc8e	0.036556773
218	0xbce0c706	-0.027438652
219	0xbc01e449	-0.007927963
220	0x3d04268f	0.032263335
221	0xbc4d5aea	-0.012533883
222	0x3d56662e	0.05234354
223	0xbcbef0ca	-0.023308177
224	0x3ab2ec7e	0.0013650802
225	0x3d7fee30	0.062483013
226	0x3db1dfaa	0.08685239
227	0x3d548772	0.051886983
228	0x3d489b07	0.04897597
229	0x3cb1db9e	0.021711167
230	0x3ca29346	0.019845616
231	0x3ded3f21	0.115843065
232	0x3d2a34a3	0.041554105
233	0x3d8db408	0.06919104
234	0x3b859017	0.0040760147
235	0x3c27e6ee	0.010247929
236	0xbd535a0d	-0.05159955
237	0x3d365170	0.04451126
238	0x3d0f251e	0.034947507
239	0xbd666a51	-0.056253735
240	0xbb257ee4	-0.0025252635
241	0x3bf16411	0.007366665
242	0xbb3674c3	-0.0027840592
243	0x3b4cd4eb	0.0031254839
244	0xbd1fb88a	-0.03899435
245	0xbd267327	-0.04063716
246	0xbcfaa7f0	-0.030597657
247	0x3cadfbd5	0.021238247
248	0xbcbdfa0e	-0.023190524
249	0xbce13aaa	-0.027493794
250	0xbd2b5497	-0.041828718
251	0xbd6fbd86	-0.058530353
252	0xbc12243b	-0.008919771
253	0xbcaa4fd9	-0.020790027
254	0x3d3c61e4	0.045991793
255	0x3d389db0	0.045072258

features.6.bias f4 [64]
0	0x3c963974	0.018337943
1	0x3bed2a5f	0.007237717
2	0xbc83de07	-0.016097082
3	0x3d30f0fa	0.043198563
4	0x3c271d77	0.010199896
5	0xbd17ca40	-0.037058115
6	0xbc9577a8	-0.018245533
7	0x3c640c0b	0.013918887
8	0x3caf7592	0.021418367
9	0x3c20b49b	0.009808685
10	0x3d6010fb	0.054703694
11	0x3d71d185	0.059037704
12	0xbd297568	-0.041371733
13	0x3ccce28d	0.025010372
14	0xbcf7869f	-0.03021556
15	0xbd33c790	-0.04389149
16	0x3ced5aa3	0.028973883
17	0xbb4b4679	-0.0031017347
18	0xbcac928f	-0.021065978
19	0xbd0d6ec7	-0.034529474
20	0x3d0df640	0.03465867
21	0xba8bb391	-0.0010658373
22	0x3d666c9e	0.05625593
23	0x3c6a8d47	0.01431591
24	0xbd6eb752	-0.058280297
25	0x3cc25735	0.023723224
26	0xbcb2c022	-0.021820132
27	0xbd20603f	-0.039154287
28	0x3c901140	0.01758635
29	0xbbd9393a	-0.0066291364
30	0x3d3ae03a	0.045623995
31	0x3ce3eb51	0.027822169
32	0xbd4042c8	-0.046938688
33	0x3d839e05	0.06426624
34	0x3cba713b	0.02275907
35	0xbca20b72	-0.019780848
36	0x3d5b3971	0.053521577
37	0xbd11a28b	-0.035555404
38	0xbcb7284c	-0.022358082
39	0x3ba9c68c	0.0051811393
40	0x3c9a918c	0.01886823
41	0x3a6932d1	0.0008895817
42	0xbc22db7c	-0.009940024
43	0xbd446a17	-0.047952738
44	0xbc0e1fc0	-0.008674562
45	0xbc7f0215	-0.015564461
46	0x3d1643b2	0.036685653
47	0xbcb4e802	-0.022083286
48	0x3cca54ab	0.024698576
49	0xbd054a47	-0.03254154
50	0xbd18eb8d	-0.037334014
51	0xbc83659a	-0.016039658
52	0xbb2f4734	-0.0026745321
53	0x3cfa0473	0.0305197
54	0xbb30350d	-0.002688709
55	0xbc8b5ace	-0.017011072
56	0x3c7d02f0	0.015442595
57	0x3b8c36be	0.0042789867
58	0x3c26d16b	0.010181765
59	0xbd6315f6	-0.055440865
60	0xbd3dde45	-0.04635455
61	0x3bc5011b	0.0060120947
62	0x3ccc3eb4	0.024932243
63	0x3d4c4664	0.049871817

head.weight f4 [5, 64, 1, 1]
0	0x3d3cf47e	0.046131603
1	0x3d210f0f	0.039321
2	0x3d281378	0.04103419
3	0xbdc90a4f	-0.09816419
4	0x3daa07a4	0.083022386
5	0x3cb2edf8	0.021841988
6	0x3c90e538	0.017687425
7	0x3d6b34a8	0.057423264
8	0x3da26617	0.07929628
9	0x3d8d29dc	0.0689275
10	0x3cbbf5a4	0.022944279
11	0x3b6704b2	0.0035250601
12	0xbcb0e250	-0.02159229
13	0x3dad65e6	0.08466701
14	0x3cfd3d1e	0.030912932
15	0x3cd09160	0.025459945
16	0x3d90d4c2	0.0707183
17	0x3d8475f2	0.06467809
18	0x3b1b53c0	0.0023701042
19	0x3d90d622	0.070720926
20	0xbd26a5cb	-0.040685456
21	0x3d9c46ec	0.07630715
22	0x3dcc8e14	0.09988037
23	0xbd1eae7f	-0.03874063
24	0xbd960a46	-0.07326178
25	0xbdeb4ec5	-0.114896335
26	0xbdb46fc4	-0.0881038
27	0x3d85d6b0	0.06535089
28	0x3d859fd3	0.06524625
29	0xbdda2f3e	-0.10653542
30	0xbca1578f	-0.019695072
31	0xbcc143c3	-0.023591882
32	0x3a997bd8	0.0011709882
33	0x3d63eaa0	0.055643678
34	0x3d6aa8eb	0.05729
35	0xbc78f95c	-0.015196171
36	0x3df876ff	0.12132072
37	0x3d4d7b18	0.05016622
38	0x3d0c8350	0.034304917
39	0xbc157ec5	-0.0091244625
40	0x3d972fc5	0.07382158
41	0x3d280906	0.04102423
42	0x3dae053d	0.08497093
43	0xbd8caa1a	-0.06868382
44	0xbdb371ab	-0.08761915
45	0xbd9b6564	-0.07587698
46	0xbdc8140a	-0.09769447
47	0x3dfdfed4	0.1240212
48	0xbdd53769	-0.10410959
49	0x3c7e29c0	0.015512884
50	0xbd82dfc0	-0.06390333
51	0xbd9703e1	-0.07373787
52	0xbddc62b7	-0.10761016
53	0x3decc33e	0.11560677
54	0x3d2d30d8	0.04228291
55	0xbd07dbe4	-0.03316869
56	0xbd0f3771	-0.034964982
57	0x3df2b371	0.11850632
58	0x3d83478d	0.064101316
59	0xbd94a98c	-0.07258901
60	0x3d964a1c	0.07338354
61	0xbcac0eb8	-0.021003112
62	0x3ddd93d3	0.10819211
63	0x3dd6c255	0.10486285
64	0xbdb75983	-0.0895262
65	0x3dc9f53d	0.098612286
66	0x3dc7018e	0.097170934
67	0x3d3cce59	0.046095226
68	0xbdb97ba9	-0.090567894
69	0x3d49f444	0.049305215
70	0x3ded6e6c	0.11593327
71	0xbd795e54	-0.060880974
72	0x3d620545	0.055180807
73	0x3dd95f56	0.10613887
74	0xbc1bac92	-0.009501593
75	0xbd3aed79	-0.045636628
76	0xbd85efd0	-0.06539881
77	0xbd86e31e	-0.06586288
78	0xbda44271	-0.08020485
79	0xbdc22c56	-0.09481113
80	0x3d384ec2	0.044996984
81	0xbde6c7cf	-0.11268579
82	0xbd313e48	-0.043272287
83	0x3b5bdb40	0.0033547431
84	0x3cc42c72	0.023946974
85	0x3d46175c	0.04836212
86	0x3b7f313d	0.003893926
87	0x3d808b00	0.06276512
88	0xbdf3ff84	-0.1191397
89	0xbe06536c	-0.1311776
90	0xbdd2700c	-0.102752775
91	0x3d836c9e	0.064172015
92	0x3cbd5249	0.023110526
93	0x3d8d3e82	0.06896688
94	0xbd49a024	-0.049224988
95	0xbc7ddab1	-0.015494035
96	0xbde7c195	-0.1131622
97	0xbd57a79f	-0.05265009
98	0xbcf29c1d	-0.029615456
99	0x3dba027c	0.09082505
100	0xbcfafc0c	-0.030637763
101	0xbc9b1b28	-0.018933848
102	0xbdb434c8	-0.0879913
103	0xbd36cd96	-0.044629656
104	0xbcb367f6	-0.021900158
105	0xbda5cd22	-0.080957666
106	0x3bcaac00	0.006185055
107	0x3d0cf118	0.034409612
108	0x3c27c0cf	0.01023884
109	0x3cccd2fc	0.025002949
110	0xbca04975	-0.019566277
111	0x3d2c0a77	0.042002168
112	0xbcb9aae9	-0.022664504
113	0xbc52a010	-0.012855545
114	0xbc1f7375	-0.009732117
115	0x3d8d9faa	0.06915219
116	0xbda7a594	-0.081858784
117	0xbc6b0fa6	-0.014346993
118	0x3d4ecb60	0.050486922
119	0xbdf8731a	-0.12131329
120	0x3d39a6ac	0.045324966
121	0xbdd5cd6c	-0.10439572
122	0x3d6f0412	0.05835349
123	0x3acf3700	0.0015809238
124	0x3d7ea990	0.062173426
125	0xbdad7581	-0.08469678
126	0xbd859590	-0.065226674
127	0xbdb45ce6	-0.088067815
128	0x3dc92299	0.09821052
129	0xbd95dd35	-0.073175825
130	0xbd49a484	-0.04922916
131	0xbde0a5a8	-0.109690964
132	0x3dcb0e28	0.099148095
133	0x3d9334c2	0.07187797
134	0x3c2757f0	0.010213837
135	0xbdaa3804	-0.083114654
136	0xbd1edef7	-0.038786855
137	0x3db2dc9a	0.08733483
138	0x3dc8e808	0.098098814
139	0xbdc9d706	-0.098554656
140	0x3d8b8368	0.06812173
141	0x3dc1f121	0.0946982
142	0x3dd0b9d5	0.10191695
143	0xbd4893a8	-0.04896894
144	0x3dac088f	0.0840007
145	0x3da1fc1b	0.079094134
146	0x3d864c00	0.065574646
147	0xbc137eb0	-0.009002373
148	0x3d59571a	0.053061582
149	0x3dd7d0d2	0.10537876
150	0xbce357ca	-0.027751822
151	0xbdfadd0b	-0.12249192
152	0x3d9f1ce6	0.07769184
153	0xbdaf4214	-0.08557525
154	0xbdba1e8a	-0.09087856
155	0xbcfbf4f0	-0.030756444
156	0x3d99cca5	0.07509736
157	0xbd94a54a	-0.07258089
158	0xbb3ea340	-0.0029089004
159	0xbdd11ee8	-0.10210973
160	0x3cf380f4	0.029724576
161	0x3db42ed3	0.087979935
162	0xbd8f635a	-0.07001372
163	0xbc11fde6	-0.008910632
164	0x3b50d4c6	0.0031865104
165	0x3dd623e2	0.10456063
166	0xbcf343b8	-0.029695377
167	0x3ce39631	0.027781578
168	0x3d2bddd8	0.041959614
169	0xbb88d838	-0.004176166
170	0xbd0e3608	-0.034719497
171	0x3de3dfac	0.111266464
172	0x3d141dd1	0.036161248
173	0x3cf9113c	0.030403726
174	0x3de9bb27	0.114126496
175	0xbbe18aea	-0.006883015
176	0x3ba7a470	0.005116038
177	0x3d7703e8	0.06030646
178	0x3d7a8167	0.061158564
179	0x3da28f25	0.07937459
180	0x3da29477	0.07938474
181	0xbdc273f8	-0.094947755
182	0xbb6e2400	-0.0036337376
183	0x3b864460	0.0040975064
184	0x3d934f2e	0.07192837
185	0x3cacc205	0.02108861
186	0xbadd062a	-0.0016862799
187	0x3dbb4b5a	0.091452315
188	0xbdac7c6e	-0.084221706
189	0x3d0c4c17	0.034252252
190	0xb944fa34	-0.00018785225
191	0x3dac217a	0.08404823
192	0x3cd4756d	0.0259349
193	0x3beb6532	0.0071836943
194	0xbd4ce688	-0.05002454
195	0x3bfab19e	0.007650568
196	0xbd8362ae	-0.06415306
197	0xbd90359a	-0.07041474
198	0x3df25e02	0.11834337
199	0x3ddadcad	0.10686622
200	0xbdc6c31b	-0.09705182
201	0xbd6ba4e8	-0.057530314
202	0x3d992701	0.074781425
203	0x3ba4064b	0.005005633
204	0x3df48e4a	0.11941202
205	0x3d94667b	0.07246109
206	0xbdb79cc6	-0.08965449
207	0x3d79c7d8	0.0609816
208	0xbdc02dee	-0.093837604
209	0xbd5e59d3	-0.05428488
210	0x3de3dbe2	0.11125924
211	0xbb6b4480	-0.0035898983
212	0xbdc07865	-0.093979634
213	0x3cee40a0	0.02908355
214	0x3dfeb554	0.12436929
215	0xbd8fb3da	-0.07016726
216	0x3db1ec58	0.08687657
217	0xbd7b72d5	-0.06138881
218	0x3df3fefc	0.11913869
219	0x3d30ba80	0.04314661
220	0x3d2366a1	0.039892796
221	0xbb9eb210	-0.004843004
222	0xbda17cff	-0.07885169
223	0xbd8dbacf	-0.069203965
224	0xbdc2f110	-0.09518635
225	0x3d257e6e	0.040403776
226	0x3c6b2cad	0.014353913
227	0xbd2ccbe0	-0.042186618
228	0x3de9058e	0.113780126
229	0x3df0bf94	0.11755291
230	0xbd8ba9ca	-0.06819494
231	0x3bd6685d	0.006543203
232	0xbdeba263	-0.11505582
233	0x3db673bc	0.08908793
234	0x3d7954af	0.060871776
235	0x3db66fe2	0.08908059
236	0x3d390ad9	0.04517636
237	0xbd460545	-0.04834487
238	0x3c6bb23e	0.014385758
239	0x3d0d8d9c	0.034558877
240	0x3d9e207b	0.07721039
241	0xbdf59742	-0.11991741
242	0x3d7fd5d6	0.06245979
243	0x3e092d30	0.13396144
244	0xbdd7e997	-0.105426006
245	0x3d941120	0.07229829
246	0x3d9f03aa	0.07764371
247	0x3de0f1a2	0.10983588
248	0x3e042579	0.1290492
249	0xbb62c300	-0.0034601092
250	0x3e05b21c	0.13056225
251	0xbbeb7e20	-0.007186666
252	0xbdede7e8	-0.11616498
253	0xbde0dd6b	-0.10979732
254	0xbd107eb8	-0.0352771
255	0x3d2d196b	0.04226057

head.bias f4 [5]
0	0xbde76375	-0.11298267
1	0x3cec73af	0.028863756
2	0x3c5a59a9	0.013327041
3	0xbd7c359c	-0.061574563
4	0x3c84cdaa	0.01621135
